…
Alphabet: [' ', '!', '&', "'", ',', '-', '.', 'A', 'B', 'C', 'D', 'E', 'F', 'G', 'H', 'I', 'J', 'K', 'L', 'M', 'N', 'O', 'P', 'Q', 'R', 'S', 'T', 'U', 'V', 'W', 'X', 'Y', 'Z', 'a', 'b', 'c', 'd', 'e', 'f', 'g', 'h', 'i', 'j', 'k', 'l', 'm', 'n', 'o', 'p', 'q', 'r',
 's', 't', 'u', 'v', 'w', 'x', 'y', 'z']
Training data shape (num rows, num cols): (6039, 37)

Generator summary:
Model: "sequential_1"
_________________________________________________________________
Layer (type)                 Output Shape              Param #
=================================================================
dense_1 (Dense)              (None, 16)                112
_________________________________________________________________
dense_2 (Dense)              (None, 32)                544
_________________________________________________________________
dense_3 (Dense)              (None, 64)                2112
_________________________________________________________________
dense_4 (Dense)              (None, 128)               8320
_________________________________________________________________
dense_5 (Dense)              (None, 256)               33024
_________________________________________________________________
dense_6 (Dense)              (None, 512)               131584
_________________________________________________________________
dense_7 (Dense)              (None, 37)                18981
=================================================================
Total params: 194,677
Trainable params: 194,677
Non-trainable params: 0
_________________________________________________________________
Discriminator summary:
Model: "sequential_2"
_________________________________________________________________
Layer (type)                 Output Shape              Param #
=================================================================
dense_8 (Dense)              (None, 500)               19000
_________________________________________________________________
dense_9 (Dense)              (None, 250)               125250
_________________________________________________________________
dense_10 (Dense)             (None, 125)               31375
_________________________________________________________________
dense_11 (Dense)             (None, 60)                7560
_________________________________________________________________
dense_12 (Dense)             (None, 30)                1830
_________________________________________________________________
dense_13 (Dense)             (None, 15)                465
_________________________________________________________________
dense_14 (Dense)             (None, 1)                 16
=================================================================
Total params: 185,496
Trainable params: 185,496
Non-trainable params: 0
_________________________________________________________________
GAN summary:
Model: "sequential_3"
_________________________________________________________________
Layer (type)                 Output Shape              Param #
=================================================================
sequential_1 (Sequential)    (None, 37)                194677
_________________________________________________________________
sequential_2 (Sequential)    (None, 1)                 185496
=================================================================
Total params: 380,173
Trainable params: 194,677
Non-trainable params: 185,496
_________________________________________________________________
Generated words:
  h    hZGA,K   ,lEAPJ ! Da   hM   U C
  W    ZSB,!J   AVB!LG & CT  &aK   O D
  H &  IJOKG     X! E   .'D   P    L A
  h    ZRFFHC ,  gGEFJ . CY  .YB ! V G
  j C  kbJK.. - AgMDOU   Ah  DhM   i P
…
