
Generator summary:
Model: "sequential_1"
_________________________________________________________________
Layer (type)                 Output Shape              Param #
=================================================================
dense_1 (Dense)              (None, 16)                96
_________________________________________________________________
dense_2 (Dense)              (None, 32)                544
_________________________________________________________________
dense_3 (Dense)              (None, 64)                2112
_________________________________________________________________
dense_4 (Dense)              (None, 64)                4160
_________________________________________________________________
dense_5 (Dense)              (None, 64)                4160
_________________________________________________________________
dense_6 (Dense)              (None, 64)                4160
_________________________________________________________________
dense_7 (Dense)              (None, 37)                2405
=================================================================
Total params: 17,637
Trainable params: 17,637
Non-trainable params: 0
_________________________________________________________________
Discriminator summary:
Model: "sequential_2"
_________________________________________________________________
Layer (type)                 Output Shape              Param #
=================================================================
dense_8 (Dense)              (None, 64)                2432
_________________________________________________________________
dense_9 (Dense)              (None, 64)                4160
_________________________________________________________________
dense_10 (Dense)             (None, 64)                4160
_________________________________________________________________
dense_11 (Dense)             (None, 64)                4160
_________________________________________________________________
dense_12 (Dense)             (None, 32)                2080
_________________________________________________________________
dense_13 (Dense)             (None, 16)                528
_________________________________________________________________
dense_14 (Dense)             (None, 1)                 17
=================================================================
Total params: 17,537
Trainable params: 17,537
Non-trainable params: 0
_________________________________________________________________
GAN summary:
Model: "model_1"
_________________________________________________________________
Layer (type)                 Output Shape              Param #
=================================================================
input_1 (InputLayer)         (None, 5)                 0
_________________________________________________________________
sequential_1 (Sequential)    (None, 37)                17637
_________________________________________________________________
sequential_2 (Sequential)    (None, 1)                 17537
=================================================================
Total params: 35,174
Trainable params: 17,637
Non-trainable params: 17,537
_________________________________________________________________
Generated words:
  eNETH,nku  -H    M   IW  B- '  B-
  MF!C! JTQ  A'    &   -J &-, .  ,-
  aQCS &kxp  -G    W   Je  !     K   !
  cSCT&-nyw  !C    V   Nc  !     J
  SI'I-&Zbh   D!   L   FN  !     A&  !
…
