…
2020-06-19 11:24:47.922203: I tensorflow/core/platform/cpu_feature_guard.cc:143] Your CPU supports instructions that this TensorFlow binary was not compiled to use: AVX2
2020-06-19 11:24:47.935028: I tensorflow/compiler/xla/service/service.cc:168] XLA service 0x2b3b98efea0 initialized for platform Host (this does not guarantee that XLA will be used). Devices:
2020-06-19 11:24:47.939002: I tensorflow/compiler/xla/service/service.cc:176]   StreamExecutor device (0): Host, Default Version
Generator summary:
Model: "sequential_1"
_________________________________________________________________
Layer (type)                 Output Shape              Param #
=================================================================
dense_1 (Dense)              (None, 16)                112
_________________________________________________________________
dense_2 (Dense)              (None, 32)                544
_________________________________________________________________
dense_3 (Dense)              (None, 64)                2112
_________________________________________________________________
dense_4 (Dense)              (None, 128)               8320
_________________________________________________________________
dense_5 (Dense)              (None, 256)               33024
_________________________________________________________________
dense_6 (Dense)              (None, 512)               131584
_________________________________________________________________
dense_7 (Dense)              (None, 37)                18981
=================================================================
Total params: 194,677
Trainable params: 194,677
Non-trainable params: 0
_________________________________________________________________
Discriminator summary:
Model: "sequential_2"
_________________________________________________________________
Layer (type)                 Output Shape              Param #
=================================================================
dense_8 (Dense)              (None, 500)               19000
_________________________________________________________________
dense_9 (Dense)              (None, 250)               125250
_________________________________________________________________
dense_10 (Dense)             (None, 125)               31375
_________________________________________________________________
dense_11 (Dense)             (None, 60)                7560
_________________________________________________________________
dense_12 (Dense)             (None, 30)                1830
_________________________________________________________________
dense_13 (Dense)             (None, 15)                465
_________________________________________________________________
dense_14 (Dense)             (None, 1)                 16
=================================================================
Total params: 185,496
Trainable params: 185,496
Non-trainable params: 0
_________________________________________________________________
GAN summary:
Model: "sequential_3"
_________________________________________________________________
Layer (type)                 Output Shape              Param #
=================================================================
sequential_1 (Sequential)    (None, 37)                194677
_________________________________________________________________
sequential_2 (Sequential)    (None, 1)                 185496
=================================================================
Total params: 380,173
Trainable params: 194,677
Non-trainable params: 185,496
_________________________________________________________________
Generated words:
  U!!    I 'B,  FN& B  UA   FWFV  !M
  G rH     a J BG mOV J  d F, UaAi
  E xE     d J BF sVX J  h D' afBi
  A yF     Y H DC iLP Q  d F. anKb & -
  ! V!    ,c E F  WBN    V    Pn T
…
